Model: "model"
_________________________________________________________________
 Layer (type)                Output Shape              Param #   
=================================================================
 input_1 (InputLayer)        [(None, 170, 1)]          0         
                                                                 
 conv1d (Conv1D)             (None, 166, 16)           96        
                                                                 
 conv1d_1 (Conv1D)           (None, 162, 16)           1296      
                                                                 
 max_pooling1d (MaxPooling1D  (None, 81, 16)           0         
 )                                                               
                                                                 
 dropout (Dropout)           (None, 81, 16)            0         
                                                                 
 conv1d_2 (Conv1D)           (None, 79, 32)            1568      
                                                                 
 conv1d_3 (Conv1D)           (None, 77, 32)            3104      
                                                                 
 max_pooling1d_1 (MaxPooling  (None, 38, 32)           0         
 1D)                                                             
                                                                 
 dropout_1 (Dropout)         (None, 38, 32)            0         
                                                                 
 conv1d_4 (Conv1D)           (None, 36, 32)            3104      
                                                                 
 conv1d_5 (Conv1D)           (None, 34, 32)            3104      
                                                                 
 max_pooling1d_2 (MaxPooling  (None, 17, 32)           0         
 1D)                                                             
                                                                 
 dropout_2 (Dropout)         (None, 17, 32)            0         
                                                                 
 conv1d_6 (Conv1D)           (None, 15, 256)           24832     
                                                                 
 conv1d_7 (Conv1D)           (None, 13, 256)           196864    
                                                                 
 global_max_pooling1d (Globa  (None, 256)              0         
 lMaxPooling1D)                                                  
                                                                 
 dropout_3 (Dropout)         (None, 256)               0         
                                                                 
 dense_1 (Dense)             (None, 170)               43690     
                                                                 
 dense_2 (Dense)             (None, 170)               29070     
                                                                 
 dense_3_mitbih (Dense)      (None, 2)                 342       
                                                                 
=================================================================
Total params: 307,070
Trainable params: 307,070
Non-trainable params: 0
_________________________________________________________________
Epoch 1/100
2022-09-08 19:27:51.375555: W tensorflow/core/platform/profile_utils/cpu_utils.cc:128] Failed to get CPU frequency: 0 Hz
…
