Model: "model"
_________________________________________________________________
 Layer (type)                Output Shape              Param #   
=================================================================
 input_1 (InputLayer)        [(None, 8, 1)]            0         
                                                                 
 conv1d (Conv1D)             (None, 8, 16)             96        
                                                                 
 conv1d_1 (Conv1D)           (None, 8, 16)             1296      
                                                                 
 max_pooling1d (MaxPooling1D  (None, 4, 16)            0         
 )                                                               
                                                                 
 dropout (Dropout)           (None, 4, 16)             0         
                                                                 
 conv1d_2 (Conv1D)           (None, 4, 32)             1568      
                                                                 
 conv1d_3 (Conv1D)           (None, 4, 32)             3104      
                                                                 
 max_pooling1d_1 (MaxPooling  (None, 2, 32)            0         
 1D)                                                             
                                                                 
 dropout_1 (Dropout)         (None, 2, 32)             0         
                                                                 
 conv1d_4 (Conv1D)           (None, 2, 32)             3104      
                                                                 
 conv1d_5 (Conv1D)           (None, 2, 32)             3104      
                                                                 
 max_pooling1d_2 (MaxPooling  (None, 1, 32)            0         
 1D)                                                             
                                                                 
 dropout_2 (Dropout)         (None, 1, 32)             0         
                                                                 
 conv1d_6 (Conv1D)           (None, 1, 256)            24832     
                                                                 
 conv1d_7 (Conv1D)           (None, 1, 256)            196864    
                                                                 
 global_max_pooling1d (Globa  (None, 256)              0         
 lMaxPooling1D)                                                  
                                                                 
 dropout_3 (Dropout)         (None, 256)               0         
                                                                 
 dense_1 (Dense)             (None, 8)                 2056      
                                                                 
 dense_2 (Dense)             (None, 8)                 72        
                                                                 
 dense_3_mitbih (Dense)      (None, 2)                 18        
                                                                 
=================================================================
Total params: 236,114
Trainable params: 236,114
Non-trainable params: 0
_________________________________________________________________
2022-09-08 18:58:50.964834: W tensorflow/core/platform/profile_utils/cpu_utils.cc:128] Failed to get CPU frequency: 0 Hz
Epoch 1/100
…
