Model: "model"
_________________________________________________________________
 Layer (type)                Output Shape              Param #   
=================================================================
 input_1 (InputLayer)        [(None, 41, 1)]           0         
                                                                 
 conv1d (Conv1D)             (None, 41, 16)            96        
                                                                 
 conv1d_1 (Conv1D)           (None, 41, 16)            1296      
                                                                 
 max_pooling1d (MaxPooling1D  (None, 20, 16)           0         
 )                                                               
                                                                 
 dropout (Dropout)           (None, 20, 16)            0         
                                                                 
 conv1d_2 (Conv1D)           (None, 20, 32)            1568      
                                                                 
 conv1d_3 (Conv1D)           (None, 20, 32)            3104      
                                                                 
 max_pooling1d_1 (MaxPooling  (None, 10, 32)           0         
 1D)                                                             
                                                                 
 dropout_1 (Dropout)         (None, 10, 32)            0         
                                                                 
 conv1d_4 (Conv1D)           (None, 10, 32)            3104      
                                                                 
 conv1d_5 (Conv1D)           (None, 10, 32)            3104      
                                                                 
 max_pooling1d_2 (MaxPooling  (None, 5, 32)            0         
 1D)                                                             
                                                                 
 dropout_2 (Dropout)         (None, 5, 32)             0         
                                                                 
 conv1d_6 (Conv1D)           (None, 5, 256)            24832     
                                                                 
 conv1d_7 (Conv1D)           (None, 5, 256)            196864    
                                                                 
 global_max_pooling1d (Globa  (None, 256)              0         
 lMaxPooling1D)                                                  
                                                                 
 dropout_3 (Dropout)         (None, 256)               0         
                                                                 
 dense_1 (Dense)             (None, 41)                10537     
                                                                 
 dense_2 (Dense)             (None, 41)                1722      
                                                                 
 dense_3_mitbih (Dense)      (None, 2)                 84        
                                                                 
=================================================================
Total params: 246,311
Trainable params: 246,311
Non-trainable params: 0
_________________________________________________________________
2022-09-08 17:33:28.617412: W tensorflow/core/platform/profile_utils/cpu_utils.cc:128] Failed to get CPU frequency: 0 Hz
Epoch 1/100
…
